flow_model.pth (torch, 48311 bytes, 8 tensors)

net.0.weight f4 [64, 27]
00000000: 266e acbd 40be 3dbe aa19 a7bd 1eed 99bc
00000010: ecda 9fbd 51c0 0cbe d624 bb3d 1e87 243e
00000020: 631b 07be 0faf efbd 75aa 3fbb e7ec be3e
00000030: 281b 14be 2ca5 8ebe 177c 9f3e 7acc 9b3e
00000040: 46dc adbe 385a b03d 316f 0e3e d19d 1f3d
00000050: a067 013e 6cca 9fbe 6ce1 603d 1f4a 5b3e
00000060: f9fe c63d 55e9 0e3d 6b15 023e c97b 853c
00000070: 1960 2f3c 46e2 ff3d 2280 6bbb b348 7dbb
00000080: adb7 063e 8384 25be 1f4f 3d3d 41de ecbd
00000090: c24c 7b3e 1390 88bd 053d 3b3e 05e4 133e
000000a0: f62d b33d 46e0 ad3e 5781 8d3e add1 9ebe
000000b0: a362 4cbe 7847 6abe ebb4 b4bd 425f 003e
000000c0: c794 40be aaa7 49bd 7965 9ebe cafd 17be
000000d0: dba7 15be 8487 333e dbe2 cd3c 05fc 4e3e
000000e0: 8dec 373e 2f6a 9e3d 97ed 813d 1105 1abe
000000f0: c4a2 563e 6238 57be caf7 9b3a 9b78 82bd
00000100: c6fe b83c 10e8 9dbe 593c 9d3e 37ce 933d
00000110: a9b2 293c 73fe 21be bfb5 9fbe 6190 46be
00000120: b9fc 803e b78d 91be 824e 083d f9c4 173e
00000130: 7370 bf3d eca2 a63e ff2e 2ebd 08f1 d7bc
00000140: 3b78 773e 432d 593e 30e4 3bbd cbfe e13d
00000150: ce6a 123d 2581 1cbd 0885 19be e7da 8e3d
00000160: db27 133e b2a1 603d 796a 753e 1873 86bc
00000170: f222 06be e840 acbe e7a0 b23e 1fe7 703e
00000180: f9fa cbbd 740b a6be 8036 c3bd b90c 8cbe
00000190: f79a 083e dcfb 9a3d ab48 ab3e aa5f 92be
000001a0: eb62 1bbe bc54 483e d41d b23e 132a 893e
000001b0: 5f2e 49bd c947 073e 4100 adbb 55a3 253e
000001c0: 8fe3 5d3d f168 263e dbab 873c f631 313d
000001d0: ce9a aabc 62a9 833e 1e99 a93d 6da2 c73d
000001e0: 5cf6 223e 3d59 93be b7e1 9abe b350 823e
000001f0: cc9f 403e 8ef0 31be 701f 6abc d1fd 5a3e
00000200: 88d3 593d c518 45be ab49 9f3d de0a 913e
00000210: 733d a43e 562e 923e d700 793c ea3d e9bd
00000220: e60c 76bc 85d7 9f3d 8f6a 08be a386 843c
00000230: 54a9 f1bc 961d b9bc 176a b9bd cd0d ec3d
00000240: e5fc 343d 30a6 963d 3cd4 82be da72 973e
00000250: 76e0 943d 059d d5bc d877 583e 6755 813d
00000260: 9bc4 b2be 3261 ee3d b9ec 3ebe ffbd 9b3e
00000270: 9ef6 793e ac05 853e f7b6 ae3e dbc1 7b3e
00000280: c1e8 4bbe ad7c f6bd 666a 303e 73b8 29bd
00000290: 97ce e93d 5177 023e 730f bbbc 8961 943d
000002a0: d22b e83d d021 2f3e b28d 12be 2891 1bbd
000002b0: 546b 703d 2d3f 1b3e 98e3 03bd aa43 b43d
000002c0: 108b c3be a1d4 38be 76b8 8f3e 4569 3ebe
000002d0: c300 c63e ae8e f1bd fe87 a93e 1e76 7d3d
000002e0: a19f cf3d 4f25 a43e 4a4d dc3d 6efe bebd
000002f0: 4186 08bd 7788 25bd 0c41 d73c 9dbe c33c
00000300: 36a0 163e eef3 c6bd e7e8 b1bd 4896 363d
00000310: 2286 7e3d 4d47 cebc b936 a23d ff51 d9bd
00000320: 63ff 473e 1d4f 85be 5a03 4e3e 4ebe 5ebd
00000330: 3d03 41be 489b 72bd c41e 56bd 76e1 953e
00000340: e028 9c3e e31a a23e c0d1 0c3e c0e5 c63c
00000350: 786d cf3e 7519 93be b2e8 7b3e 4a82 9abe
00000360: f539 d7bc 6455 713c edab 433e 00bb 0d3d
00000370: 0359 2a3d 07e8 1fbe 9419 97bc 0466 293e
00000380: 111d e63c ed6e 29bd cc18 943d d524 583e
00000390: b61e dabd 5c3e ba3d edd0 993e c585 073c
000003a0: 82df 963d a3de 2f3d bc96 8a3e 7f1f 12be
000003b0: 38f3 2abe 5360 02bc 786c 813e aa04 603e
000003c0: ba6f 6bbe 0ac3 b33e 4a5b b6be 147c b5bd
000003d0: 2e14 19be 0a86 933d 8276 66bd 4fe3 73bd
000003e0: e5bc 8b3e 8978 11bd 7eab 993c 3afd a23d
000003f0: 208e 98bc 7046 b13e 4935 a1bc 42e2 623e
-0.08419447 -0.18529606 -0.08159192 -0.018789824 -0.07805428 -0.13745238 0.09137885 0.16067168
-0.13194041 -0.11703312 -0.0029245887 0.37290117 -0.14463484 -0.2786039 0.3114936 0.3042944
-0.33957118 0.08610958 0.13909604 0.038968865 0.12637186 -0.31209123 0.05490248 0.21414994
0.09716601 0.03489049 0.12703483 0.016294377 0.010704064 0.1249433 -0.0035934527 -0.0038648068
0.13156004 -0.1616383 0.046218034 -0.11565829 0.24541 -0.06668105 0.18284996 0.14442451
0.08749001 0.3396017 0.2763774 -0.31019345 -0.19959502 -0.22878826 -0.0882357 0.12536338
-0.18806754 -0.049232163 -0.30936792 -0.14842907 -0.14614813 0.17532164 0.025132587 0.20213325
0.1796133 0.07735097 0.06344145 -0.15040995 0.20960528 -0.21017602 0.0011899408 -0.0637066
0.022582423 -0.30841112 0.30710104 0.07217067 0.010357537 -0.15819721 -0.3119335 -0.19391014
0.25192812 -0.28428432 0.033277996 0.14821233 0.0934762 0.32546175 -0.042525288 -0.02636005
0.24166958 0.21208672 -0.045871913 0.11034926 0.035746388 -0.0382091 -0.14992154 0.06975346
0.14370672 0.054841705 0.23966397 -0.016412303 -0.13099268 -0.3364327 0.34888384 0.23525666
-0.099599786 -0.32430613 -0.095318794 -0.27353457 0.13340364 0.075675696 0.3345388 -0.2858861
-0.15174453 0.19563574 0.34788382 0.26789913 -0.04911649 0.13210978 -0.0052795713 0.16175587
0.054172095 0.1625097 0.01656144 0.043260537 -0.02082577 0.25715166 0.08281158 0.09747777
0.15914291 -0.2877902 -0.30250332 0.25452194 0.18810958 -0.1737692 -0.014289722 0.21385886
0.053180248 -0.1924773 0.07777723 0.28328604 0.32078132 0.28550977 0.015197954 -0.11388762
-0.015017724 0.07804779 -0.13321899 0.016177481 -0.029499687 -0.022597115 -0.09053438 0.1152607
0.04418649 0.073559165 -0.25552547 0.29579812 0.07269375 -0.02607585 0.21139467 0.06315117
-0.34915623 0.11639632 -0.1864499 0.30418393 0.24410483 0.2598089 0.34123966 0.24585669
-0.19913007 -0.12035499 0.17228088 -0.04143567 0.11416357 0.12740828 -0.022834515 0.07245166
0.11336483 0.17102742 -0.14311865 -0.03798023 0.058696106 0.15160818 -0.032199472 0.088019684
-0.38192034 -0.18049861 0.2807042 -0.18594845 0.38672456 -0.11794792 0.33111566 0.061880223
0.10137869 0.32059714 0.10756929 -0.09325872 -0.03333116 -0.040413346 0.026276134 0.023894602
0.14709553 -0.09714495 -0.08687001 0.044576913 0.062139638 -0.025180483 0.07920594 -0.10611343
0.19531016 -0.2603692 0.20118466 -0.054380707 -0.18848892 -0.05923012 -0.052275434 0.29273576
0.30499935 0.31661138 0.13751888 0.024279475 0.40513206 -0.2873036 0.24600485 -0.30177528
-0.026272753 0.014729831 0.19108553 0.034602165 0.041588794 -0.15615855 -0.018444814 0.16542822
0.028090032 -0.041365553 0.07231292 0.211078 -0.10650389 0.09093925 0.3004221 0.008271639
0.073668495 0.042936932 0.27068126 -0.14269827 -0.16694343 -0.007957536 0.25278068 0.21876779
-0.22991839 0.3510974 -0.35616523 -0.08861557 -0.14949104 0.072033 -0.05626536 -0.05954295
0.27292553 -0.035515342 0.018758532 0.079584554 -0.018622458 0.34624052 -0.019678729 0.22156623

net.0.bias f4 [64]
00000000: 54da bdbd 3cb4 4e3e d879 94bd 1cc5 543e
00000010: ec2b a13e 573d 1f3e ec00 913d ff41 893e
00000020: f87c 793e ca86 8e3a 3207 b23d ad9a a53e
00000030: 5f38 e8bd 61bf 783d dc44 e53d f15e 773e
00000040: d61c 573e ab05 0f3e 4b02 473e 4775 ec3d
00000050: 1dc9 553e b1c3 a23e e3ec 563e e156 4c3c
00000060: 358d babd 5e10 1cbe b232 473e 4f97 8c3e
00000070: a54c c3bd 927e d73b c499 863e b462 b53e
00000080: d86c cc3d bfb3 e43d 5691 1abe cebe 863e
00000090: f39c 293e 35b2 6d3d eedd 373e 12f6 b8bd
000000a0: 0e4b 163e 0106 353e 7b0f 443e 9d90 b2bd
000000b0: 8662 d43d 4596 a1bc 4edf ad3d 9e98 da3c
000000c0: dbfa f43d 8eec 993e 89dc 983e 7e4a 2e3c
000000d0: e458 663e 0bf6 403e 44ef 3c3e 3f70 503e
000000e0: ced8 6e3d ea93 183e b353 2bbb 8fbe 113e
000000f0: 03b7 a23e 9d71 303e 0acf 043e b363 c13d
-0.092701584 0.20185941 -0.07249802 0.20778316 0.31478822 0.15550743 0.07080254 0.26808164
0.24364078 0.001087391 0.08692779 0.3234457 -0.11338877 0.06072939 0.111947745 0.24157311
0.21007094 0.13967006 0.19434468 0.115458064 0.208775 0.31789926 0.20988803 0.012471885
-0.09108964 -0.15240619 0.19452932 0.2745919 -0.09536103 0.0065763677 0.2628919 0.35426867
0.09981698 0.11167096 -0.15094504 0.26317447 0.16563778 0.05803128 0.17955753 -0.09031309
0.14677069 0.17678072 0.1914653 -0.08718989 0.10370354 -0.019724974 0.084898576 0.026684102
0.119619094 0.3006329 0.29855755 0.0106378775 0.22494847 0.18843858 0.18450648 0.20355318
0.05831223 0.14900175 -0.0026142418 0.14232849 0.31780252 0.1723084 0.12969604 0.09442844

net.2.weight f4 [64, 64]
00000000: ac6e b4bd bdda 22bd 5214 913e 7dca 823e
00000010: 79bf a73d e519 533d 8afd 76bd f96b a03d
00000020: 39ab 5cbd 2001 32be 0a2f 1e3e daa1 973e
00000030: 1337 ea3d 08b5 3dbe 6295 15be 2033 8b3e
00000040: 7621 cfbc 0315 983e 9155 103e b51c 6ebe
00000050: c130 5bbe 8d81 fa3b 728e 6b3e df6d 4f3e
00000060: 8b62 87be f055 db3d 7ba8 e53d f3d0 3abe
00000070: 077e 6dbd a6f7 82be 9905 b2be 2027 013e
00000080: dc10 f6bd cb4b e6bd abd5 3fbd 8334 113d
00000090: a38a 13bd cdfe 3f3e 47f5 9a3e 3704 3ebe
000000a0: b3ff 873e 4dff 343e 99ca f6bd 9531 75bd
000000b0: ba3c 49be ef73 ddbd f2f7 7e3e 04ee 843c
000000c0: ad1f b0bd 0c48 1f3d 6cd2 42bd a018 053e
000000d0: 581a cc3d 69e3 4c3e a330 05be 2bf8 7dbe
000000e0: 84bc 2c3d e327 29be 66e0 76bd edfc 873e
000000f0: af95 24bd c713 07be 83e9 a0bd e806 15be
00000100: fc34 9ebe 280f 5dbe cf97 143e 8485 47bd
00000110: b54d 023d ad93 3e3d 68e0 383e 2276 453d
00000120: 6d8d cd3c 6ce7 73be 7f57 8b3d 298f d03d
00000130: 9424 af3e 4d88 75be 981e 44be 1fd1 9c3d
00000140: 372c 773d b396 533e e469 9a3e 5a7b 16be
00000150: 210d 0a3e 61c1 aa3e f602 593e 4e5f 8f3d
00000160: 1595 5fbe 54cd b7bd 8869 e43d d88a ecbc
00000170: 842a 923d 0b0d b1be 5bb4 223c fc61 e2bd
00000180: caf4 05be 8ba0 4abd 5566 753e 7c79 303d
00000190: 2b41 133e 6daf 8b3e 69c9 ae3e 43d8 3ebe
000001a0: 24fb 52be bd20 3ebe f755 53b8 50b8 8ebe
000001b0: 1ffc 273e 2538 b7bd fef2 f5bc a852 0b3e
000001c0: d1fd a83e 24d1 be3e b69d 0cbd b5d7 0d3e
000001d0: 04e2 8a3c 50f3 6c3d be1a 613d aa56 8d3d
000001e0: b339 dabd d523 4e3e e4f9 bebc f89f 18bd
000001f0: 5135 413e 4827 0b3e 7980 a7be 1dd9 82bd
00000200: 9c35 84bd 903b 913d 5a43 d2bc a6e6 843e
00000210: 5f83 f33d 6867 19be ac41 56be d137 36bd
00000220: 9175 1f3d 7e80 c73c be08 4abc 4085 5cbd
00000230: 1efd 0e3e 3e50 4dbe 16a6 0d3e d4f8 00be
00000240: 7e06 41be 198f 463e 67cc 893e 724b 1dbe
00000250: f39e b73c 03dc 8b3e 0a78 24be c2a1 55be
00000260: f692 453d 7959 6dbe 4e29 5f3d 2393 2a3d
00000270: c900 03be 6baa 3c3e b1a9 703e 867a 1b3d
00000280: 6fe4 f73d 1cd0 483c 7324 5b3e 6de5 e23d
00000290: 15cd 2fbc 8b31 653b cd62 9e3e 721a 62be
000002a0: 3177 89bd 39ee 8abe 1075 373d cfda 0abe
000002b0: e91c 853e d027 8ebe b98d 883e b294 4f3e
000002c0: e2c8 703e fda8 ce3d 14d7 393e 915c 0e3e
000002d0: 8d61 463e 446f bdbd 713d 2fbe 8164 0b3d
000002e0: 2c41 ffbd 65e8 0a3e a44b 813d 2b00 133e
000002f0: d2b9 833e de57 cd3d 3a43 52be e67c 3c3e
00000300: 29a4 97be 3440 9ebd 5358 2bbd 5839 4e3e
00000310: a675 4abd 3877 4c3e c768 e63c e6f0 9dbc
00000320: 99ad 1c3e 410b 48be 34a2 5c3c 6b01 0d3e
00000330: 32bf b7bd 3501 94bc af2a fb3d 3511 1b3e
00000340: b74c 213d e96f 603d d197 b33c 26d6 99be
00000350: 045a 713c 89aa d93d 6a2a e43c a68d 44be
00000360: 6e95 7ebe e5fd 82be 1e2c 89be 241e 5dbe
00000370: 419b 9c3d 896f 8fbe da34 a73e ce9d 66be
00000380: e0ea 11be 6888 85bd c733 e63d c14e df3c
00000390: 6a84 b83d a5dd aabd 066f 823e 4781 e8bd
000003a0: dafe 13bd bdb8 febd 83b3 483e 82ab 31be
000003b0: c7fd 243e 1db3 d9bd b3df 4c3d 5b2f 993d
000003c0: e2fa 713d b507 e03d b5ca 1e3d a86a ac3c
000003d0: 8d8f 083e ab64 8d3d 624e 44be 1a90 ab3d
000003e0: bad4 e6bd cc64 f53d 1e79 9b3e 7e9f 013e
000003f0: d632 383e 27e8 7e3c b8d1 00be 1a69 c1bd
-0.088101715 -0.039759386 0.28335816 0.2554511 0.081908174 0.051538367 -0.060300387 0.07833094
-0.05387423 -0.17383242 0.15447631 0.2961567 0.11436286 -0.18526089 -0.14607766 0.27187443
-0.02528451 0.2970353 0.14095141 -0.23253138 -0.21405317 0.007644838 0.23003557 0.20256756
-0.2644237 0.10709751 0.11213776 -0.1824377 -0.057981517 -0.25579566 -0.34769896 0.12612581
-0.120149344 -0.11244925 -0.04683463 0.03545047 -0.036020886 0.18749543 0.30265257 -0.18556295
0.2656227 0.17675515 -0.12050361 -0.05986174 -0.19652072 -0.10813128 0.24899271 0.016226776
-0.08599792 0.03888707 -0.047563955 0.12997675 0.09965962 0.20008625 -0.13006835 -0.248017
0.04217197 -0.16519122 -0.060272597 0.26560155 -0.040181812 -0.13191138 -0.07857039 -0.14553416
-0.308998 -0.21587813 0.14511035 -0.048711315 0.03181239 0.046527553 0.18054354 0.048208363
0.025091851 -0.23818749 0.06803798 0.10183556 0.34207594 -0.23977776 -0.19152296 0.07657074
0.0603449 0.20662956 0.30158913 -0.14695492 0.13481571 0.3335066 0.21192536 0.070006
-0.21834214 -0.0897471 0.11152941 -0.0288748 0.071370155 -0.34580263 0.009930695 -0.11053845
-0.13081661 -0.049469512 0.23964818 0.043084607 0.14380328 0.27282277 0.3413804 -0.18637185
-0.20603615 -0.18567176 -5.038638e-05 -0.27874994 0.1640477 -0.089462556 -0.030023094 0.1360575
0.33006147 0.37268937 -0.034330092 0.13851817 0.016953476 0.05784923 0.054957144 0.069012955
-0.106555365 0.20130856 -0.023312517 -0.037261933 0.18867995 0.13589203 -0.32715204 -0.06389067
-0.06455538 0.07091439 -0.025666881 0.2595722 0.118902914 -0.14980853 -0.2092349 -0.044486824
0.03893048 0.024353262 -0.012331186 -0.053838015 0.13963744 -0.20050141 0.13832888 -0.1259492
-0.18850133 0.19390525 0.2691376 -0.15360811 0.02241466 0.27316293 -0.16061416 -0.20862487
0.048235856 -0.23178662 0.05448275 0.041644227 -0.12793268 0.18424384 0.23502232 0.037958644
0.12104117 0.012256648 0.21400623 0.11078916 -0.010730048 0.0034972157 0.30934754 -0.220804
-0.06712187 -0.27134874 0.044789374 -0.13560031 0.2599862 -0.2776475 0.26670626 0.20271567
0.2351413 0.10090826 0.18148452 0.13902499 0.1937315 -0.09249738 -0.17113282 0.034031395
-0.124636024 0.13565214 0.063132554 0.14355533 0.25727707 0.10026525 -0.20533457 0.1840702
-0.29617432 -0.077270895 -0.04183228 0.20139062 -0.049428605 0.19967353 0.028126134 -0.019279908
0.15300597 -0.19535543 0.013466407 0.13770072 -0.089720145 -0.018066982 0.122640006 0.15143283
0.0393798 0.054794226 0.021922978 -0.30046195 0.014730934 0.1062823 0.027852256 -0.1919466
-0.2486169 -0.2558433 -0.2679147 -0.21593529 0.076468 -0.28014782 0.3265751 -0.22521135
-0.14249754 -0.06520158 0.112403445 0.027259232 0.09009631 -0.083430566 0.2547533 -0.11352783
-0.036131717 -0.1243758 0.19599728 -0.17350581 0.16112433 -0.10629866 0.050018024 0.074797355
0.05907715 0.1093897 0.038767535 0.021046951 0.1333601 0.069039665 -0.19170526 0.083770946
-0.11271043 0.11982116 0.30365843 0.12658498 0.17988142 0.015558279 -0.12580001 -0.09443875

net.2.bias f4 [64]
00000000: be92 a33c 0979 db3d 72e1 513e 9186 253c
00000010: f473 583e f723 253e 04ce 133e 7149 2f3e
00000020: 1700 273e 4bb7 c9bd 0398 b03d 6416 2e3e
00000030: 2738 d2bc 0a04 1b3e 6feb 873e ed4f 373d
00000040: 6f7d aabc 60af 943c 5bf5 753d ed04 e43d
00000050: e1ee 023e 241e 743d de61 0a3e ecc7 cd3d
00000060: 9552 6c3d b4e7 df3d 44e9 0a3e 87f2 953d
00000070: 38cb ea3c 38c3 643c 0c82 fdbc fd9c 7e3e
00000080: b5b2 3f3d e7b7 e2bd b67d 2b3e 94ef 8cbc
00000090: 0a39 a23d 2cb9 473e fb72 fb3c c4c5 a73c
000000a0: 1990 823d a5d0 f33d 540e 37bd 8506 303d
000000b0: 0451 673e 696a dd3d 37c8 413e 26a3 1b3e
000000c0: e148 493e 7014 623d aee9 6c3d 66e6 68bd
000000d0: aea2 0f3e f848 cb3d e252 fe3d fac3 0b3e
000000e0: 4b18 df3d 1712 da3d 6682 4b3e c845 893d
000000f0: 1d60 273e d769 f73c 98df 913d 9f5b 013e
0.019967433 0.10716445 0.20496157 0.010102884 0.21137983 0.16127001 0.14434057 0.1711786
0.16308628 -0.098494135 0.08622744 0.17000729 -0.025661541 0.1513826 0.2654681 0.044753958
-0.020811765 0.018150032 0.060048442 0.11133752 0.12786438 0.059599057 0.13513896 0.10047898
0.057695944 0.10932866 0.13565546 0.07321649 0.028661355 0.013962559 -0.0309458 0.24864574
0.046801288 -0.11070233 0.16747174 -0.017204084 0.079210356 0.19504231 0.030694475 0.020480044
0.06375141 0.1190503 -0.0446914 0.042974968 0.22589499 0.10811312 0.18924032 0.15198955
0.19656707 0.055195272 0.05784004 -0.05686035 0.14026901 0.09926027 0.124181524 0.13648978
0.108933054 0.106479816 0.19873962 0.06702763 0.16345258 0.030201836 0.07122725 0.12632607

net.4.weight f4 [64, 64]
00000000: c1c8 123e fdc5 dc3d 9615 f13b 22bc fe3d
00000010: 3de4 85be 9e89 50bd caa3 523e 76b0 f03d
00000020: 2e33 853e 5763 a43e 7b50 8abe ffe6 8ebe
00000030: ef77 0f3d d68a 963d 0b3f c13d a962 b7bd
00000040: 8d10 05be 4cee f03d 194b 483e e056 5bbe
00000050: f151 983e bd47 ccbd f16e 833c 668b 2d3e
00000060: 6340 003e 3cee 703e 6b73 963e d7ac 77bd
00000070: e3db efbd 0405 f63d 6be3 a13e 285d bcbd
00000080: 5019 3e3e 2185 1a3e b770 1e3e 68ce 4a3e
00000090: 683b 4c3e 826f 10be ff66 5bbe 29dc bc3d
000000a0: 898d c63d 66ce a53e c851 da3d 3a98 113e
000000b0: 6545 a53d 6d7b bbbd 8107 fd3d f251 033c
000000c0: cac8 143c 2dab 483b ba9d 773e 4229 fb3d
000000d0: 9697 0ebe 70f4 7ebd 255e 6fbb 132f 1a3e
000000e0: 327f ce3c 89a6 1fbe cc95 903e 0b51 77be
000000f0: 16fe b73d d47b 1e3e fb7f 523e 4455 c73d
00000100: 6132 5abe ff42 5a3e 0eb7 2f3e ffda eb3d
00000110: f426 a4bd fdda 93be 2581 f63d 32dd e63d
00000120: a677 853e 092a 893d 56c6 a03e 20ef 80be
00000130: b716 453d a7cb 4cbe 1531 b03d 1f3a 18be
00000140: 8ee0 63be 2282 0bbe 6fe0 6f3e 3fb0 8d3e
00000150: 2965 3fbe 59d7 c53d 21a3 753d 3538 f73d
00000160: 1bef 553e edbc 4e3e 6073 0cbe dc88 b0bd
00000170: 9334 593e a475 b03e ceef 583e 8b2f 8d3e
00000180: b37d c63d daa4 bdbc 786c d6bd adf0 88be
00000190: 35f0 a43d 6c15 8b3e b7ba 783b d255 78be
000001a0: bb10 4e3e 2e6e 013d 7ea0 ebbb 1943 c9bd
000001b0: 9d04 6d3e 0e58 0ebe 5d8f 8f3e 8426 333e
000001c0: 810b 143e 1a06 833e 7929 193e 61b7 76be
000001d0: cdfa 26be b7a7 8ebd 9080 8f3d dc33 7bbe
000001e0: f34a 5a3e b47a b43e a67b a5bd 964c 8b3d
000001f0: 9b5d 893e 549c 273d 74a9 8a3e 6e58 ce3d
00000200: 0f5c 29bd 671c 193e 6bac d9bd 4c65 803e
00000210: b9f1 043e d0cb 9e3e 00cf 76be ffd7 eebc
00000220: 61a8 28be 14de ab3d 7ed4 60bd 0e2a 723e
00000230: a7e4 923e 54f7 9e3e 32ba 493d 98d8 03be
00000240: 1087 3e3e ac59 713e 6e34 b9bb fc1b 313e
00000250: e64c fcbd 7b95 e0bc 5843 cf3d 44ca d23d
00000260: 2f25 713d 02b5 aebd 5c9b 2b3e 764f bbbd
00000270: ade4 aabe b6e2 58be ddeb 683e f728 60be
00000280: c8c6 19be dd9e 51bc 2dd5 ed3d 0820 18bc
00000290: 726e b73d 2a26 aabe 24df 21be bbea a63e
000002a0: d459 893d d80e 69bd 670d e83d 8b36 c5bd
000002b0: 706e 023e 05cf acbc b98d 1d3e d001 6d3e
000002c0: a5c4 5a3e 1888 0dbe 1f6a b03c 27b0 85be
000002d0: 009a fd3d e786 1d3d 8d54 2c3e 1ca8 813e
000002e0: 7833 b13d 5581 2dbe 8e94 af3e c51a fdbd
000002f0: e75c 8a3d 254c 5dbe 8435 96be f3e0 8f3e
00000300: 8d44 453e 2f2d 7abd 5761 c9bd 140a 963e
00000310: e3e2 343e b77b 30be 084d 0abe 0795 863e
00000320: 68b1 c5bd aaf1 943e a1ea 95bd 7d29 1fbe
00000330: c6fd 253e 85a7 313e e240 5f3e 4d10 593d
00000340: 0484 2d3e 6416 1c3e 1b9f 4cbe a265 4b3e
00000350: 3a02 8f3e 19ad 6d3e e9c9 84bd 3565 ea3c
00000360: edbb 933e a4ea 393e 779b 2e3e 2f2d d03d
00000370: 4082 553e d271 293e fcce 173e 9ed9 573e
00000380: 1cb9 813e e42b a5bd de64 dcbc 9c6d 09be
00000390: 9ba9 0ebd f6d1 133d 23ab 563d 3851 52be
000003a0: 358b 423d 18a5 f33d e31f 5a3e dac8 b33e
000003b0: 74cb f83d e762 d13d 2f22 c5bd d944 543e
000003c0: a281 763e 0a07 2d3d 7341 9dbd ad29 87be
000003d0: 5981 9abe ac11 fa3c 2601 6dbd 85cc 4bbd
000003e0: 30b1 233d a52b 593e 77f6 373d 494f d1bd
000003f0: 6d15 913e f846 bf3d 0577 673e 569e 8abe
0.14334394 0.10779951 0.0073573096 0.12438227 -0.26150694 -0.050912492 0.20570293 0.11752407
0.2601561 0.3210704 -0.27014527 -0.2791061 0.035026487 0.073506996 0.094358526 -0.08954365
-0.12994595 0.117642015 0.19559897 -0.21419859 0.29750016 -0.099746205 0.016044112 0.16947708
0.12524562 0.23528379 0.29384932 -0.060467567 -0.11711862 0.120126754 0.3161882 -0.09197456
0.18564343 0.15089847 0.15472685 0.198053 0.19944537 -0.14105037 -0.21426009 0.0922168
0.096949644 0.32384032 0.1066013 0.14218226 0.080698766 -0.09154401 0.12354947 0.008015143
0.009081075 0.0030619607 0.24181262 0.12263729 -0.13925013 -0.062244833 -0.003652462 0.1505702
0.025207136 -0.15590872 0.28239286 -0.24152009 0.0898401 0.15476924 0.20556633 0.0973306
-0.2130828 0.2131462 0.17159674 0.115163796 -0.08015242 -0.28878012 0.12036351 0.112726584
0.26067847 0.06697471 0.31401318 -0.25182438 0.048117366 -0.19999562 0.08603112 -0.14865921
-0.2225363 -0.1362386 0.23425458 0.27673528 -0.18690933 0.09660215 0.059970025 0.120712675
0.20891993 0.20189257 -0.13715887 -0.08619854 0.21211462 0.34464753 0.21185228 0.27575335
0.09691944 -0.023149896 -0.104699075 -0.2674612 0.08053628 0.2716478 0.0037953088 -0.24251488
0.2012357 0.031599216 -0.007190763 -0.09827251 0.23146291 -0.13900778 0.28039065 0.17495161
0.14457513 0.25590593 0.14957227 -0.24093391 -0.1630661 -0.06965583 0.07006943 -0.24531502
0.21317653 0.35249865 -0.08080225 0.06801717 0.26829228 0.04092057 0.27082407 0.100754604
-0.04134756 0.14952241 -0.10628589 0.25077283 0.12982835 0.31014872 -0.24102402 -0.02915573
-0.16470481 0.083919674 -0.05489015 0.23648855 0.28690073 0.3104807 0.049249835 -0.12875593
0.1860621 0.23569363 -0.005652002 0.17295831 -0.12319355 -0.027415028 0.10120267 0.10292485
0.05887335 -0.08530618 0.16758484 -0.09146015 -0.3337759 -0.21180233 0.22746225 -0.21890627
-0.15017235 -0.012794224 0.11612926 -0.009284981 0.08956613 -0.33232242 -0.15807778 0.3260096
0.067065865 -0.05689892 0.11330681 -0.09629544 0.12737441 -0.021094808 0.15386094 0.23145223
0.21364076 -0.13821447 0.021534977 -0.26110956 0.12382889 0.03845873 0.16829129 0.2532357
0.08652395 -0.16943868 0.34293026 -0.123586215 0.06756001 -0.21611078 -0.29337704 0.2810131
0.19264431 -0.061078247 -0.09833019 0.29304564 0.17664675 -0.17234693 -0.13505948 0.26285574
-0.09652978 0.29090625 -0.073201425 -0.1554317 0.16210088 0.1734906 0.21802095 0.05299406
0.16944891 0.15242916 -0.19982569 0.19862989 0.27931386 0.23210563 -0.06483824 0.028612712
0.28854313 0.18155915 0.17051493 0.10164868 0.20850468 0.16547325 0.14825052 0.21079108
0.2533654 -0.08065012 -0.026903566 -0.13420719 -0.034829717 0.036088906 0.052409302 -0.20538795
0.04749604 0.118967235 0.21301226 0.35114175 0.121481806 0.10223942 -0.09625661 0.20729388
0.24072888 0.04224304 -0.07678499 -0.26398984 -0.3017681 0.030526005 -0.057862423 -0.049755592
0.0399639 0.21208055 0.04491278 -0.102202006 0.2833666 0.09339708 0.22603996 -0.27073926

net.4.bias f4 [64]
00000000: ae08 e8bc 5b26 0e3d 5d6c 02bd 8869 a43c
00000010: 36ff 953d e68c 153e 5601 d83d d060 293d
00000020: f865 363c ceab 3fbd 523b b83d 0ef2 933d
00000030: f300 523d e664 1e3e 78bb 4b3e e665 2b3e
00000040: af50 793d 6bfd 413e db31 3c3e a4c8 603e
00000050: e41e 073e b8c7 1c3b 9f1d 8a3d 4cb7 b73d
00000060: 98ce 8f3d 6f7b 163e c53f 803d d427 3abd
00000070: ca33 903d 7e17 353e 5ea5 073d 343d 133d
00000080: 4ff3 7ebc bb00 693d 7bab bc3d bc70 643e
00000090: 977e 44bb 9902 923d da3e 2a3e 3e11 1b3e
000000a0: f75e 50bc 7c28 b83d bbca 43bd 3873 d93d
000000b0: 664e b3bd 40d1 073e 11cd 993d ed2c 0d3e
000000c0: d4fc d43d d6ad 5a3d ff1f 2cbd d60f a83d
000000d0: 4ff0 a93d 5e64 393e d09a 85bb fc7f 903d
000000e0: cefa 04bc eabc 1a3e a6c6 21bd 8986 e1bc
000000f0: dec4 3fbd 701b debc e068 133e 8399 333e
-0.028324451 0.034704547 -0.031841625 0.020069852 0.07324068 0.1460453 0.1054713 0.041352093
0.01113271 -0.046794705 0.089956895 0.07223903 0.051270436 0.15468177 0.19895732 0.1673809
0.06086796 0.18944328 0.18378393 0.21951538 0.13195378 0.0023922753 0.06743931 0.08970508
0.070218265 0.14695524 0.06262163 -0.04544814 0.07041128 0.17684743 0.03311669 0.03594704
-0.015560939 0.056885462 0.09212395 0.2230863 -0.002998268 0.07129402 0.16625538 0.15143296
-0.012717954 0.08992097 -0.04780076 0.10617679 -0.08755188 0.13263416 0.075098164 0.13786669
0.10399786 0.05338844 -0.0420227 0.082061455 0.08297788 0.18104693 -0.004077293 0.07055661
-0.008116437 0.15111127 -0.039496087 -0.027529972 -0.046818607 -0.027112693 0.14395475 0.17539029

net.6.weight f4 [16, 64]
00000000: 8a39 263e 56be f7b9 8568 a23e 315f 863e
00000010: d764 81bd e973 7bbe b67f 6a3e d46e dd3d
00000020: bbee 0bbe 6d04 e53d cc4e 89be 6a22 6dbe
00000030: c2c1 36be 1458 93be 0a5d eb3d 1f3f 443e
00000040: 39b4 513e fc7a 78be 865a 9dbd b590 b9bb
00000050: b77f febd c26f f2bd e4a9 bd3e db0e b0be
00000060: 6041 9ebe a212 c33d d8d6 32be a8a2 a43d
00000070: 3918 5e3e f9e1 0a3e d351 ca3d 4132 9dbe
00000080: 5a75 8bbd 3ea3 aa3e 2262 2fbe ca91 34be
00000090: aabf 63be a314 a9be 0243 30be c2f5 493e
000000a0: 320a aabe 6f9f 40be e4b9 393e dca1 223e
000000b0: 99c8 163e 7cbb 21be 6669 bf3c 4381 aabc
000000c0: 08ae 6ebe 4e72 87bd 5f10 643e 3c3c b13e
000000d0: 58d3 1e3d f192 bfbc fca8 9dbe 0ff8 09be
000000e0: 9d8d 943e 9e2b bb3e 1bab 66bd 98ef afbc
000000f0: 00c8 5abc 6b2a 943d 7585 c03d 8156 11be
00000100: db66 9d3e caaa 993e 8ce4 dcbd d03b 933e
00000110: b99e 963e cb6a 00be b258 1a3e 9e5a 1b3e
00000120: 983b 84be 266c 6bbe 19f4 5f3e 2a19 6e3e
00000130: a540 43be d465 30bd 7b59 563e 9044 193e
00000140: 1946 8cbc 6de7 16be aaf2 353e 354d 7c3e
00000150: dee7 963e 8e94 1f3e 836c 9cbe 44c0 87bd
00000160: 5dc6 2abe da56 583e e46e 8bbe edb7 333e
00000170: 6f82 fabd 6ac6 423d 0f34 2b3e 19f4 c1bd
00000180: 4c39 733e d013 84bd 8c7e 22bc 097d f0bd
00000190: 67b4 093e ce33 093e 976f 553e d259 9b3e
000001a0: 083f 123e 87f7 89be 61fc 62be 0644 64be
000001b0: 15a9 4b3e 005e d9bd 6baa 7b3e cb13 31be
000001c0: 60ca 5d3e c94c 1c3d 03e9 5dbe aad7 9cbe
000001d0: 5c60 44be a375 213e cdae aebe 36a2 87be
000001e0: f995 debd 43c7 75be 8efe bdbe d04c 3fbe
000001f0: ac0d 93be 16aa 433e 7b73 693e 7c5e 39be
00000200: 0317 213e 9286 e9bd af93 9e3e 3c39 58be
00000210: a219 873e d6a9 f7bd fa70 60be 870a 923e
00000220: 5ef6 303e 34b7 6abe 1de0 9abe 2333 443e
00000230: ad12 023e 20f4 90be 0504 a03c bda9 653e
00000240: d2bf 7abe f31e de3d d8b8 7b3e 3f41 71be
00000250: 3eca 20be 2cfa e9bc d7e1 bdbc 0a9d 803e
00000260: 52dc 79be 3cfa 553e b35b 9dbe 206a 2abe
00000270: 43cd 23bd f536 983e 05ce 5e3e 3995 3f3e
00000280: bf96 9abe 7af0 9abd caa0 71be e199 30be
00000290: 692c 44be de0b 993e c657 193e 8c7b 7a3e
000002a0: 9bd2 29be ff9c ec3d bcbf 833e 6575 463e
000002b0: 8c9e 963d 9e18 8c3c 5c28 8f3e ba0c 793e
000002c0: 742a a73d 839f 953e fbd5 b73d 4ab7 3dbe
000002d0: 6d54 803d cc3e 5cbd 96b7 603e d1da 453e
000002e0: cb2c a2be 1f20 6ebc e735 fabd 8c21 5cbe
000002f0: e962 05be 8099 52be 491c b8bd 433e 74be
00000300: c18a 80be b826 823e c189 10be ba5a 5bbe
00000310: 5ea4 84be e582 8d3e 7b57 2abd c128 5f3e
00000320: 015f 0cbe 0304 c9bd f49f 5abe 370c 5ebe
00000330: 874f 853e f1f9 93be ab02 6e3e d554 06be
00000340: d928 79be c2e3 913e 6785 e7bc 4700 1fbd
00000350: 3574 f13c aa8b 59bc 8a3f f03d 6f31 473e
00000360: 0cfd 413e 4d53 35be fcf3 a1be 3626 e2bd
00000370: 78f2 153e e688 863c 8ff7 52bd 5ecd af3d
00000380: 0be3 823e 2bd8 6a3e eb95 a83c 8f2f ea3d
00000390: 341f f43d 88c0 2bbe 5fda 833e 5458 b43c
000003a0: 3d64 d9bd edd3 a13e 9a55 503e 8045 123e
000003b0: a11d aa3e 1d6c a6be 3b03 d33d d90d 95be
000003c0: 9ac6 c63d d747 28be ad11 46be 152e 56be
000003d0: 9f77 583e c58c f73d 1c41 abbe 93ad 06be
000003e0: eb3c eb3c 7dd4 393e 5f37 94bd 3c1e 28be
000003f0: 6931 3abe da08 36bd 0eb2 97be f012 773e
0.16232887 -0.00047253323 0.31720367 0.262445 -0.06318062 -0.24555935 0.2290028 0.108121544
-0.13665287 0.11182485 -0.2681793 -0.23157659 -0.1784735 -0.28778136 0.11492355 0.19164704
0.20478906 -0.24265665 -0.076832816 -0.0056630024 -0.124267034 -0.11837722 0.3704368 -0.34386334
-0.30909252 0.09525038 -0.17464769 0.08038837 0.21688928 0.13562764 0.09878888 -0.30702403
-0.068094924 0.3332767 -0.17127278 -0.17633739 -0.22241083 -0.33023557 -0.17213061 0.19722655
-0.33210903 -0.18810819 0.18137318 0.15882057 0.1472496 -0.15794176 0.023365688 -0.02081359
-0.23308575 -0.06613599 0.2227187 0.34616268 0.03877577 -0.023385497 -0.30792987 -0.13473533
0.29014292 0.36556715 -0.056315523 -0.021476552 -0.013353348 0.07234653 0.09400455 -0.14193155
0.30742535 0.30013114 -0.10785779 0.2875657 0.2941797 -0.12540738 0.15072897 0.15171286
-0.25826716 -0.22990474 0.2187046 0.23251787 -0.19067629 -0.04306586 0.20932572 0.14967561
-0.017123269 -0.1473672 0.1776835 0.24638827 0.29473776 0.15584013 -0.30551538 -0.06628469
-0.16677232 0.21126881 -0.2723304 0.17550631 -0.122319095 0.047552504 0.16719078 -0.09470386
0.23752326 -0.064490914 -0.009917866 -0.117425986 0.13447724 0.13398668 0.2084335 0.30341965
0.14281857 -0.2694666 -0.22166587 -0.22291574 0.19888718 -0.10613632 0.24576728 -0.17292707
0.21659231 0.038159166 -0.21670918 -0.3063329 -0.19177383 0.15767531 -0.34117737 -0.26490945
-0.10868449 -0.24001794 -0.37108272 -0.18681645 -0.28721368 0.19107851 0.22797959 -0.18102449
0.15731435 -0.114026204 0.3097205 -0.21115583 0.26386744 -0.120929405 -0.21918097 0.28523657
0.17281482 -0.22921449 -0.3024911 0.19160132 0.12702437 -0.28311253 0.019533167 0.22428031
-0.24487236 0.10845747 0.24582231 -0.23560046 -0.1570215 -0.028561674 -0.023178978 0.2511981
-0.24400452 0.20896238 -0.30734023 -0.16642046 -0.039990675 0.2972943 0.21758278 0.18709268
-0.30193135 -0.075653985 -0.23596492 -0.172462 -0.19157566 0.29891866 0.14974889 0.24461192
-0.16584246 0.11553382 0.2573222 0.1938072 0.07354459 0.017101582 0.2796048 0.24321261
0.08162394 0.2922326 0.089763604 -0.1852695 0.06266103 -0.053770825 0.21945032 0.19321753
-0.316748 -0.014534025 -0.12217312 -0.21497172 -0.13026012 -0.20566368 -0.0898977 -0.23851876
-0.2510586 0.25420165 -0.14115049 -0.21421328 -0.25906652 0.27638927 -0.041587334 0.2179289
-0.13708116 -0.09815218 -0.2135008 -0.21684347 0.26037237 -0.28901628 0.23243205 -0.13118298
-0.24331988 0.28494078 -0.028261853 -0.038818624 0.029474357 -0.013277927 0.11730869 0.19452451
0.18944186 -0.17707558 -0.31631458 -0.110424444 0.14643276 0.0164227 -0.05150562 0.085840926
0.25563845 0.22934024 0.020579299 0.11434852 0.11920014 -0.16772664 0.2575254 0.022014774
-0.10614822 0.31607 0.20345154 0.14284325 0.3322573 -0.3250436 0.103033505 -0.29112127
0.09705849 -0.16433655 -0.1934268 -0.20916016 0.21139382 0.120873965 -0.33448112 -0.13152151
0.028715571 0.18147464 -0.07237124 -0.16417783 -0.18182911 -0.044442035 -0.29628032 0.24128318

net.6.bias f4 [16]
00000000: acf9 9fbd 82e2 893d 2386 253d 0df2 ec3d
00000010: 5390 8ebd 27e4 a23c 997e 953d 0811 02bd
00000020: 22ec b43d b328 413d 22d8 843d c2d0 a13d
00000030: be52 653d 7865 6fbd 8d32 83bd 8a1c dfbb
-0.07811293 0.06732656 0.040411126 0.11569605 -0.069611214 0.019884182 0.07299537 -0.031754524
0.08834101 0.047157954 0.064865366 0.079011455 0.055987112 -0.058446378 -0.06406126 -0.006808822
